model_generation/outputs/model2d.tflite (tflite, 30776 bytes, 7 tensors)

arith.constant f4 [10]
-0.00056957913 0.010259441 -0.009060019 0.009967802 0.009787396 0.0 -0.0004615973 0.009388979
0.0026607795 0.0
00000000: cf4f 15ba 3717 283c 7970 14bc fe4f 233c
00000010: 505b 203c 0000 0000 8a02 f2b9 3bd4 193c
00000020: 7960 2e3b 0000 0000

arith.constant1 f4 [4, 10]
-0.25858238 -0.46755353 -0.25112823 -0.630072 -0.35350907 -0.5226099 0.44542155 -0.13745852
0.3470707 -0.029514253 -0.5883756 -0.43837747 -0.4715069 -0.26866326 -0.17377105 -0.4387936
-0.22413921 -0.29490146 -0.608694 0.09643191 -0.5768123 0.19053146 -0.028006427 0.3668906
0.5708501 -0.36082992 -0.21287726 0.55332434 -0.44222173 0.23147243 0.23489024 0.36443114
0.36954847 -0.10402009 0.23979713 -0.47393817 0.29775596 0.40993598 -0.6466158 -0.56160873
00000000: e964 84be 2d63 efbe e193 80be 664c 21bf
00000010: 24ff b4be c3c9 05bf 4b0e e43e edc1 0cbe
00000020: 40b3 b13e e0c7 f1bc c99f 16bf 0373 e0be
00000030: 5a69 f1be 3b8e 89be 0af1 31be 8ea9 e0be
00000040: c084 65be 53fd 96be 5fd3 1bbf 187e c53d
00000050: f9a9 13bf ae1a 433e bc6d e5bc 16d9 bb3e
00000060: 3b23 123f b3be b8be 7ffc 59be aaa6 0d3f
00000070: e36a e2be 1c07 6d3e 1187 703e b896 ba3e
00000080: 7535 bd3e 7c08 d5bd 618d 753e 06a8 f2be
00000090: 7873 983e 21e3 d13e 9d88 25bf 97c5 0fbf

arith.constant2 f4 [20, 3]
-0.30909353 0.14786328 -0.34953526 -0.3608872 -0.36439526 0.23389497 0.32637593 0.48769844
-0.4784629 -0.2482638 -0.23826756 -0.50161725 -0.2705861 -0.4413011 0.48295644 -0.03874117
-0.2525757 0.32775182 -0.00010120869 0.12374288 0.28677535 -0.100558065 0.03613386 0.23327397
0.26339924 -0.38746074 0.20702386 -0.35069045 0.016167462 -0.37889093 -0.010223417 -0.18526113
-0.11522966 -0.17697185 -0.31671378 -0.21762694 -0.40368992 0.23842375 0.061057117 -0.33192965
-0.3214682 -0.3681696 -0.44256085 0.36097354 -0.30983374 -0.5029429 -0.24929976 0.24244219
0.2169927 -0.41823 0.28031886 -0.2829186 -0.13918027 0.50915056 -0.054453496 0.51499045
0.13531365 -0.48798245 -0.1545172 -0.31961843
00000000: 8241 9ebe 7969 173e 49f6 b2be 35c6 b8be
00000010: 0492 babe 2a82 6f3e bf1a a73e 9cb3 f93e
00000020: 17f9 f4be de38 7ebe 69fc 73be fd69 00bf
00000030: 438a 8abe 38f2 e1be 1146 f73e 10af 1ebd
00000040: 9a51 81be 16cf a73e 0040 d4b8 e86c fd3d
00000050: 38d4 923e 63f1 cdbd 1901 143d 5fdf 6e3e
00000060: 44dc 863e 4161 c6be 10fe 533e b38d b3be
00000070: a071 843c fefd c1be 1e80 27bc 18b5 3dbe
00000080: 87fd ebbd 1c38 35be 4f28 a2be 99d9 5ebe
00000090: 72b0 cebe 5b25 743e 0717 7a3d aff2 a9be
000000a0: 7b97 a4be ba80 bcbe 5697 e2be 86d1 b83e
000000b0: 87a2 9ebe dec0 00bf 7048 7fbe c442 783e
000000c0: 5633 5e3e 3e22 d6be f485 8f3e b5da 90be
000000d0: 4685 0ebe b157 023f a10a 5fbd 6ad6 033f
000000e0: a98f 0a3e d6d8 f9be c239 1ebe 07a5 a3be

arith.constant3 f4 [10]
-0.00056957913 0.010259441 -0.009060019 0.009967802 0.009787396 -0.0 -0.0004615973 0.009388979
0.0026607795 -0.0
00000000: cf4f 15ba 3717 283c 7970 14bc fe4f 233c
00000010: 505b 203c 0000 0080 8a02 f2b9 3bd4 193c
00000020: 7960 2e3b 0000 0080

arith.constant4 f4 [4, 10]
-0.012440624 -0.038220022 0.02173878 -0.015981443 -0.0109989345 -0.0 -0.0036927783 0.007415342
0.021286236 -0.0 0.008639648 0.04666682 -0.011270012 0.036081847 0.0072692344 -0.0
0.0036927783 0.012801852 -0.021286236 -0.0 0.0035869677 0.044401493 -0.009060019 0.058076933
0.019479709 -0.0 -0.0004615973 0.052806586 0.0026607795 -0.0 0.0020598902 0.038587224
-0.02093754 0.03797653 0.02320941 -0.0 -0.0 0.03011922 -0.0 -0.0
00000000: c2d3 4bbc 998c 1cbd 8715 b23c 84eb 82bc
00000010: e034 34bc 0000 0080 8a02 72bb 66fc f23b
00000020: 7960 ae3c 0000 0080 4f8d 0d3c b525 3f3d
00000030: dba5 38bc 8fca 133d c232 ee3b 0000 0080
00000040: 8a02 723b dcbe 513c 7960 aebc 0000 0080
00000050: 5513 6b3b 57de 353d 7970 14bc 14e2 6d3d
00000060: e993 9f3c 0000 0080 8a02 f2b9 b84b 583d
00000070: 7960 2e3b 0000 0080 39ff 063b a30d 1e3d
00000080: 3485 abbc 478d 1b3d a921 be3c 0000 0080
00000090: 0000 0080 95bc f63c 0000 0080 0000 0080

arith.constant5 f4 [3]
-0.015274107 -0.0036124992 0.008886606
00000000: 4040 7abc aebf 6cbb 2199 113c

arith.constant6 f4 [20, 3]
-0.0020562315 0.0003682514 0.0023368858 -0.01843628 -0.009702846 0.0035960993 -0.015547852 -0.008182693
0.0030326953 -0.009598768 -0.005051745 0.0018722934 -0.01993721 -0.010492773 0.003888864 -0.0
-0.0 -0.0 -0.0 -0.0 -0.0 -0.021108592 -0.01110926 0.004117348
-0.0 -0.0 -0.0 -0.0 -0.0 -0.0 -0.0005576892 0.009561653
0.013261924 -0.013561194 -0.0045176805 0.006141227 -0.0003706958 0.006355627 0.008815195 -0.022070486
-0.011615497 0.0043049715 -0.08479418 -0.044626407 0.016539577 -0.0 -0.0 -0.0
-0.0013032238 0.022343937 0.030990832 -0.073275276 -0.030583136 0.024944535 -0.0017183746 0.029461753
0.040863175 -0.0 -0.0 -0.0
00000000: d7c1 06bb de11 c139 7026 193b ae07 97bc
00000010: b0f8 1ebc 89ac 6b3b 6bbc 7ebc b410 06bc
00000020: 2fc0 463b 2744 1dbc 1c89 a5bb be67 f53a
00000030: 5c53 a3bc e1e9 2bbc 50dc 7e3b 0000 0080
00000040: 0000 0080 0000 0080 0000 0080 0000 0080
00000050: 0000 0080 edeb acbc 9d03 36bc d2ea 863b
00000060: 0000 0080 0000 0080 0000 0080 0000 0080
00000070: 0000 0080 0000 0080 e431 12ba 7ba8 1c3c
00000080: 8a48 593c c52f 5ebc 0d09 94bb 593c c93b
00000090: f359 c2b9 dd42 d03b 9c6d 103c 2acd b4bc
000000a0: ed4e 3ebc b810 8d3b 92a8 adbd 2eca 36bd
000000b0: 027e 873c 0000 0080 0000 0080 0000 0080
000000c0: efd0 aaba a20a b73c 7ce0 fd3c 5911 96bd
000000d0: 7c89 fabc 7b58 cc3c 153b e1ba c659 f13c
000000e0: 2560 273d 0000 0080 0000 0080 0000 0080
