model_generation/outputs/model.tflite (tflite, 25896 bytes, 7 tensors)

arith.constant f4 [10]
00000000: 1259 69bb 1dd8 8abb 0000 0000 0000 0000
00000010: a153 71bb 5739 bc3b a41e 00ba d782 a83a
00000020: 2bd0 e93a bb9a 093b
-0.0035606069 -0.0042371885 0.0 0.0 -0.0036823528 0.00574414 -0.00048873783 0.0012856376
0.0017838528 0.0020996768

arith.constant1 f4 [4, 10]
00000000: 723b fbbe 3c3d ddbd d07a 84bd 0eca 1a3f
00000010: fed4 073f 0dd5 81be a91f 08bf 9656 af3d
00000020: 5bbe 01bf bb0b e1be fdff 133f 59d4 0b3f
00000030: 9801 833d 4baa bbbe 81ed fcbe 4e6b ec3d
00000040: 5947 80be c9e5 3b3e 022c 133f 7292 c0be
00000050: 690a b1be 5d9f 2b3c 3029 133f 8cf2 f53e
00000060: 6185 f43e 6a8e a63e 27d8 dbbe 0865 a23d
00000070: 6cdb 85be 631e 10bf 3c98 0c3f 9bc5 bcbe
00000080: ae4b d1be 7548 07bf 992c 023f 09e4 663e
00000090: d9d6 fabe 6a52 eb3e 48c1 0f3f 69a2 5cbd
-0.4906879 -0.10802695 -0.06468737 0.6046456 0.53059375 -0.25357857 -0.5317331 0.08561437
-0.50681084 -0.43954262 0.5781248 0.5462089 0.06396788 -0.3665336 -0.4939995 0.11543904
-0.25054434 0.18349375 0.57489026 -0.3761173 -0.34578255 0.010475007 0.5748472 0.4803661
0.4775801 0.32530528 -0.4293835 0.079294264 -0.26143968 -0.56296366 0.5491979 -0.3686951
-0.40878052 -0.52844936 0.508493 0.22547926 -0.4899204 0.45961314 0.561543 -0.053865824

arith.constant2 f4 [10, 3]
00000000: 1060 943e 15a7 25bf d4e9 dfbd 24f7 b5be
00000010: e8c9 083f 8649 18bf 103f adbd f4c5 a13e
00000020: afef 13bf 1096 3d3d f8d2 133f 3be9 1dbf
00000030: 07af 16be 6c56 1b3f 7290 bdbd 4248 d6be
00000040: b04d e03e 1fdc 013e a088 47be 2c48 f43e
00000050: 37ae 3abe 1c33 04bf bc26 c83d d19d edbe
00000060: 95dd 14bf 0acb 703c 4baf ffbe a0c0 253f
00000070: f34b 143f 4bf7 653e
0.2897954 -0.6470807 -0.10933271 -0.35540116 0.53433084 -0.5948719 -0.08459294 0.3159634
-0.57787603 0.04628569 0.5774379 -0.61684006 -0.14715205 0.60678744 -0.092560664 -0.41852003
0.4380927 0.12681626 -0.19485712 0.47711313 -0.1823052 -0.51640487 0.09773013 -0.46409467
-0.5815061 0.014696846 -0.49938425 0.6474705 0.5792839 0.22457616

arith.constant3 f4 [10]
00000000: 1259 69bb 1dd8 8abb 0000 0080 0000 0080
00000010: a153 71bb 5739 bc3b a41e 00ba d782 a83a
00000020: 2bd0 e93a bb9a 093b
-0.0035606069 -0.0042371885 -0.0 -0.0 -0.0036823528 0.00574414 -0.00048873783 0.0012856376
0.0017838528 0.0020996768

arith.constant4 f4 [4, 10]
00000000: a954 e63b 1dd8 0a3c 0000 0080 0000 0080
00000010: a153 713b 3ded 0bbc a41e 803a ca85 163b
00000020: 548f 273b bb9a 89bb 307c 2abc 2b44 50bc
00000030: 0000 0080 0000 0080 0000 0080 b471 093c
00000040: f52d c0ba 6915 30bc 8f59 55bc 1968 ce3b
00000050: d74b e03b 1dd8 0a3c 0000 0080 0000 0080
00000060: a153 71bb 2154 2dbb a41e 803a c225 453c
00000070: 9493 723c bb9a 89bb 1259 e9bb 1dd8 0abc
00000080: 0000 0080 0000 0080 a153 f1bb 5739 3c3c
00000090: a41e 80ba d782 283b 2bd0 693b bb9a 893b
0.0070291352 0.008474377 -0.0 -0.0 0.0036823528 -0.008540449 0.0009774757 0.0022967928
0.0025567608 -0.0041993535 -0.010405585 -0.012711565 -0.0 -0.0 -0.0 0.008388925
-0.0014662134 -0.010747292 -0.013021841 0.0062990305 0.0068449783 0.008474377 -0.0 -0.0
-0.0036823528 -0.002644785 0.0009774757 0.012032928 0.014805693 -0.0041993535 -0.0071212137 -0.008474377
-0.0 -0.0 -0.0073647057 0.01148828 -0.0009774757 0.0025712752 0.0035677056 0.0041993535

arith.constant5 f4 [3]
00000000: f7b0 8fbc 0b81 d9bb 6a4b 683c
-0.017540438 -0.0066376976 0.014178136

arith.constant6 f4 [10, 3]
00000000: 7859 e7bc 38f6 d6ba 69e9 4e3d 078b 10bb
00000010: 05e8 1c3b bd1c 3f3c 0000 0080 0000 0080
00000020: 0000 0080 0000 0080 0000 0080 0000 0080
00000030: 2951 7dbc 87de 0bbc df24 8c3b d976 89bc
00000040: e55b f5bb e92d 253c cd1b c4b9 e5e1 d439
00000050: 47a5 013b 4b93 85bc 3ba0 afbb ed4b 803c
00000060: a321 f1bc d740 30bb f75f 4b3d 72c7 b0ba
00000070: 4ae6 bf3a eebb e93b
-0.028240904 -0.0016400283 0.050515566 -0.0022055523 0.0023942005 0.011664567 -0.0 -0.0
-0.0 -0.0 -0.0 -0.0 -0.015461245 -0.008536941 0.0042768563 -0.016780304
-0.0074877613 0.010081747 -0.00037404746 0.00040604096 0.001978235 -0.016305586 -0.005359677 0.015661204
-0.029434985 -0.0026894116 0.049652066 -0.0013487174 0.0014640775 0.0071329987
